speech_id_checkpoint_bak/loss_modelTResNet34_proj512_vlad8_ghost2_spk160_utt1_dropout0.0_featspec_lr0.001_optimAdam_losssi_wd0.0001_fr250.pth (torch, 514023 bytes, 2 tensors)

linear.weight f4 [250, 512]
00000000: 4eab b93c ddbd b03c 5582 d73c 095e 7abd
00000010: a233 1b3c bf87 abbb e5b9 933d 089f a53c
00000020: 7347 773d 2cc4 84bd 6dc4 11be 4117 f93d
00000030: 87a3 a4bd a0ea 943d db62 1ebd 2d8b fabc
00000040: b6a7 003d ff92 afbc df88 343d 5256 d93d
00000050: 681e 46bd ac34 103d 433e a5b8 e094 6f3d
00000060: 7ffc a23d cdf0 81bd 4b91 41bc 04c1 15be
00000070: f53f 3abe 3600 76bd f3f0 bb3d f3b3 bdbd
00000080: f050 0bbd 2042 fcbd 4893 6d3c b6a5 ed3d
00000090: 29eb ae3c b7f7 b43d 41e3 0a3d 234c 49be
000000a0: fa4d 82bd 7d62 17be e4e2 f5bd 5345 113e
000000b0: cd33 80bd dead d7bd 9f10 c6bc 5cf2 3d3d
000000c0: c844 4a3d 0ae9 213d b3ae 6b3d 9979 adb8
000000d0: 6b42 04be f425 eebd 6e34 2d3e 1091 56bd
000000e0: 386d eabc 0911 9bbb aab2 d3bc 45b5 893d
000000f0: e8d9 333d c10c 50be 25bc 323d cb76 4c3a
00000100: 5d7d 8cbd 331c 983c 3d62 82bc 8a08 fd3c
00000110: 162f 803d a687 67bd 1230 543d 4687 81bd
00000120: d6b5 923c 784f 233b b84a adbd e4ce 91bd
00000130: dbb8 5dbd 08ce 74bc 3bf0 38bd 89e6 1e3e
00000140: d447 f33c 59b5 f13d a336 22be 9faa dbbd
00000150: de53 113e 1096 7fbd 64ef 23bb bd1b fe3c
00000160: 0ca7 44bd 03ba 123c d8c6 98bd 6334 0cbe
00000170: 5630 853b 3ddf a33d 63be 3abd f68b 413c
00000180: 0e31 193d 7716 a23d c2ea c5bb 11c3 7a3e
00000190: be13 b63c 8d1e abbd 5930 753c c81e 0b3e
000001a0: eae2 0c3d c049 4ebd 2566 9b3b f4f3 c33c
000001b0: a48e 41bc 1cc8 c3bd f9d8 11be 7a72 94bb
000001c0: 01da 493d 1a54 f9bb ce7e 5dbe 9637 003b
000001d0: a366 aa3d 3f95 11be 57c4 8a3d 6b2e dd3d
000001e0: 18e4 363e 6236 2abc 8187 4a3d d666 46bd
000001f0: 397e 0a3d 84f6 eebc 0397 93bd 4ea8 aa3d
00000200: b416 4ebc 9614 f93d 7914 fa3b c47c ac3d
00000210: d45c 153d 6938 61bd a1ae 8d3d c800 4bbc
00000220: 5274 a5bc a104 11bd 2901 bc3d 8a0a a03c
00000230: 8d5f eb3d f57f 08bc 26e2 603d b8fa 84bc
00000240: 09ec 963d 9248 b8bd 65fd 52bc 4bcf d93c
00000250: ac68 b2bd 9a80 5abd c2db 303d 514f a6bc
00000260: fd63 fb3d 695a eabd d435 79bd 313c b8bd
00000270: 8cff eebb 1a3e f63d ca7e a4bd 802c d4bd
00000280: e437 8fbd 898d d83d 4ea0 06be ddc0 9a3c
00000290: 9f78 01be 69cf 07be a150 47bd e5c6 893d
000002a0: 1822 7dbd be6e d83b a34c cabc 1d9a 3bbd
000002b0: e3fe 993c 86ca 9a3d 26e1 823c f33c e43d
000002c0: 22f7 aeba be3e 443d c576 5c3d fb8c ff3a
000002d0: e896 b63d 6667 5e3d d9de 9b3d f038 ef3d
000002e0: 8f66 403c e0dc 053e a7f4 03be 67bf 2c3d
000002f0: 0275 e7ba 1fff 68bd 9ef8 0ebe 6648 e43b
00000300: 4393 7ebd 64ac b5bc 7ddf c8bd 1721 633d
00000310: 69f1 64bd b732 0f3e 7adc 6fbd c680 313d
00000320: a82b 7e3d 8175 4fbd 4bf9 a8bd de06 dc3c
00000330: e8ba c33c 2273 c5bc 2b73 af3d 6b43 c9ba
00000340: 9f26 3c3b 8f2c a23d 294b 1b3c 6506 ae3c
00000350: 49c1 60bd 5a82 07bb be47 843d 6c7a e9bc
00000360: f690 a7bd 5199 edbc c0b2 f93c 83af 1bbd
00000370: 0853 9abd 7058 a63d aef3 c93c c58b 723d
00000380: 2df4 92bc 91d7 0a3c 9928 b23c a96d ef3c
00000390: 8782 ac3d fc71 75bd c0d3 6abc 0dbb 9d3b
000003a0: 98e4 033e 608e 24be 42f4 873d 8248 d63d
000003b0: d7b4 4f3c f6fc 263d 17b4 d53d d779 a7bd
000003c0: bdc3 393b 8281 f73d 3f4f 973d 3066 a4bd
000003d0: 35df a3bc f1dc 6fbc dfc8 8f3d b9f5 b53c
000003e0: dcde f03d b99c c43d 83a0 f13d 5935 3ebd
000003f0: 51cf 663c 7c29 f93b dae5 0fbd 7261 d63d
0.022664692 0.021574909 0.026307264 -0.061124835 0.009472759 -0.005234688 0.07213191 0.020217434
0.060370874 -0.06482729 -0.14235087 0.121626385 -0.08039003 0.07271314 -0.038668495 -0.030583942
0.03140994 -0.021432398 0.044075843 0.106121674 -0.04836884 0.03520648 -7.87941e-05 0.058491588
0.07958316 -0.06344757 -0.011814426 -0.14624411 -0.1818846 -0.060058795 0.09176817 -0.09262838
-0.034012735 -0.123173 0.014500447 0.116038725 0.021352367 0.0883631 0.033908132 -0.1965795
-0.06362529 -0.14783664 -0.120061666 0.14186601 -0.0625988 -0.105312094 -0.024177847 0.04637371
0.049382 0.039528884 0.057539653 -8.271932e-05 -0.12915961 -0.11628333 0.16914532 -0.052384436
-0.028616533 -0.0047322554 -0.02584203 0.067240275 0.043908983 -0.20317365 0.04363646 0.0007799684
-0.06859849 0.018568134 -0.015915984 0.03088786 0.06258981 -0.05652585 0.051803656 -0.063246295
0.017908972 0.0024919193 -0.08461517 -0.071195394 -0.05413137 -0.0149417 -0.045150977 0.1551763
0.029697336 0.118021674 -0.15841155 -0.10725903 0.14192149 -0.06239897 -0.0025014514 0.031019086
-0.04801087 0.008955481 -0.074598014 -0.13691859 0.0040646 0.08001564 -0.045591723 0.011813154
0.037400298 0.07914441 -0.006039948 0.24488474 0.02222621 -0.083554365 0.01496514 0.13585961
0.03439609 -0.050363302 0.004742401 0.023920037 -0.011813793 -0.09559652 -0.14242925 -0.004530248
0.04928017 -0.0076089026 -0.21630403 0.0019564382 0.08320358 -0.14217089 0.0677573 0.10799869
0.17860448 -0.010388942 0.049445633 -0.048437916 0.03381178 -0.029170282 -0.072065376 0.08332883
-0.012578655 0.121621296 0.007631835 0.08422235 0.03646548 -0.054985438 0.069180734 -0.012390323
-0.020197067 -0.035404805 0.09179909 0.019536275 0.11492834 -0.008331289 0.054903172 -0.016232833
0.07369239 -0.08998217 -0.012877797 0.026588103 -0.08711371 -0.0533453 0.043178327 -0.020301493
0.122749306 -0.114430256 -0.06084235 -0.089958556 -0.007293647 0.12023564 -0.080319956 -0.1036005
-0.06993082 0.10573871 -0.13147089 0.018890793 -0.1264367 -0.13262714 -0.048660878 0.06727389
-0.061800092 0.0066049984 -0.024694746 -0.04580127 0.018798297 0.075581595 0.0159765 0.11144438
-0.0013348798 0.047911398 0.053824205 0.0019496972 0.08915502 0.054297827 0.07610864 0.11680782
0.011743202 0.13072538 -0.12886296 0.042174723 -0.0017658772 -0.056883927 -0.13962027 0.0069666384
-0.06215216 -0.022176929 -0.09808252 0.05545148 -0.05589429 0.1398419 -0.058559872 0.0433357
0.062053353 -0.05064917 -0.08250674 0.026858743 0.023892835 -0.024102751 0.085668884 -0.0015355175
0.0028709543 0.07918655 0.009478369 0.021243284 -0.05487183 -0.002067706 0.06458996 -0.028500758
-0.08181946 -0.029003771 0.030480742 -0.038009178 -0.07535368 0.08122337 0.024652328 0.059215326
-0.017938698 0.008474247 0.021747874 0.029227095 0.084233336 -0.059923157 -0.014332712 0.004813558
0.1288017 -0.16069937 0.06638385 0.104630485 0.012677393 0.040768586 0.1043474 -0.08177536
0.002834543 0.120852485 0.07388162 -0.08027303 -0.020003894 -0.014640079 0.07020735 0.022211896
0.11761257 0.09600205 0.11798193 -0.046437595 0.014087514 0.0076038223 -0.035131313 0.10467805

linear.bias f4 [250]
00000000: 2315 f9bc d7a8 2c3c 80d2 bf3c 2399 94bc
00000010: d997 863c 1c0a b43c 09f2 32bc fcbc 643c
00000020: 4eaf 8d3d 66c3 563b f556 44bc 9424 a23b
00000030: 58c9 39bc dd11 83bc c393 48bd a5e4 c9bc
00000040: e6e0 523d 8b9f 763d 2caa a2bc fede 603d
00000050: 4500 253b f4f0 86bd 7829 953d 7b43 99bd
00000060: 2044 ec3c 416e 04bb 74e3 3c3d 50bc c13b
00000070: de9b 913d 56e8 923a 2044 0cba e1b7 b5bc
00000080: 1034 92bd 0ec0 8fbc 8680 0ebd 0ebb 3e3c
00000090: b5ab 183d c045 313d 7af6 403c 46fd 2cbd
000000a0: 8ba8 0abd 4e21 853c f176 04bd db52 dbbc
000000b0: 0066 4dbd 7718 30bd 5d3a 523c 3dd3 83bc
000000c0: 3efa 473d 2b15 d5bc f781 2fbb 1812 0abc
000000d0: 1b3b f2b9 e235 25bd db20 773c bec6 263d
000000e0: c0e8 16bd 7448 f3bc 7789 45bb 3ff3 aa3c
000000f0: 7d4a 183d 930b 4e3c 0ef9 00bc 26cd cbbc
00000100: dc81 843c cfc2 96bb fd06 67bc 71af 083d
00000110: a885 133d 20dd 10bd ef58 433c a41f 92bc
00000120: e787 dabc 79d6 5c3b 0b92 633d 8d99 9cb9
00000130: 2f4f 36bd 2571 d3bc ff89 d3bc 29d8 83bb
00000140: 5ff4 293d b471 cfbb e9e7 433c 7b30 b53c
00000150: e025 dcbc bbb4 9dbb 78c4 563c 9dc7 d53c
00000160: ffbb 26bc 2556 5fbc 1a40 e8bc c4cb a2bc
00000170: d89f 81bc e1ba 80bc 2520 a0bc 49c9 6c3d
00000180: 1df9 1abc ea57 bcba 4fd6 bb3c c8da 7dbd
00000190: 550b 06bd d148 85bc 47f4 e63c e06d 863c
000001a0: 2416 06bd dbc9 e8bc 4123 5bbc 7ed7 d83c
000001b0: 3926 66bc 50f4 4b3b e88a 24bc 1b93 f3bc
000001c0: 4f75 583d e59a 75bc aa35 593b bf29 82bc
000001d0: 0be6 ac3b 5de1 ff3c ab3b 04bd 9395 ef3c
000001e0: d278 513c b0fc 153e 3d73 a3bc 7f85 8c3c
000001f0: d597 4c3c e3e4 c33b dd46 fb3b d75d 173d
00000200: 6cdc a4bc 1ad5 02bd 686c 3cbc 45c6 4fbc
00000210: 345d 2abd 520b 263c cd8b 20bd b902 343d
00000220: 1c9f 52bd 0af1 10bd c920 65bc 9a2a 29bd
00000230: 7994 3c3b b78b 5c3d af1d 123c 021a 1f3b
00000240: b361 c1bb 9330 60bd c599 71bd 9321 25bd
00000250: a16e 89bc 3d16 03bc a144 45ba faa6 143d
00000260: 22bf 01bd 1e9f 723c 0f57 f63b 2a77 36bc
00000270: 04b4 2e3d d3e0 06bd 4cb6 08bd 9120 753d
00000280: dd63 42bc b4bc 3dbd 3b9f 6d3b e035 a4bc
00000290: 2b05 48bd 31fd 4fbc 8e22 d83d aa2c c7bc
000002a0: 4fac 993d 5ccf 0dbc 5ee2 773c 63b6 2cbc
000002b0: b167 16bd 3ba7 113d 72ab ad3c 5c63 aa3c
000002c0: 4208 8ebc 8ba4 853d 8893 5e3c 792f 2dbd
000002d0: 7819 65bd e6ca 533d c8cb 83bd b08a b23b
000002e0: 3843 b3bc 6e37 ba3c ab49 163d 92bc c1bc
000002f0: 0397 21b8 9bd9 283c d3c2 443c a4ad c9bc
00000300: 99e0 09bc 3b2e 00bd 81c0 83bd cded adbc
00000310: 8bad 1a3d cb04 a2bd 2643 5bbb 89b6 5d3c
00000320: 2dbf 863d 808d 663d dfc7 253d bac9 3b3d
00000330: 9e6b 79bd 0253 25bd 4750 6db8 bbd8 843a
00000340: 8dab 8a3d 0101 82bc cc96 933c 47a2 56bc
00000350: 4f17 f03c c629 24bc 279d 5bbd 1baa 393d
00000360: 63c0 fa3c d304 123c 7f47 c23c 5dd4 fc3c
00000370: dede 723d b571 35ba 2007 fbbc f57a 9c3c
00000380: bd4e 903c bade d33d 23f3 683c a462 1a3d
00000390: 6710 2dbd df74 80bb b791 ec39 65fb 25bd
000003a0: 5de9 eebc 4dae e33c aba0 0cbd 9270 77bd
000003b0: 7f4f 4a3c 0d98 8ebb f3d4 443c e982 543d
000003c0: 0879 3ebd 4bf5 29bc 4131 0ebb 57bb d3bb
000003d0: 48a0 22bc 156b d4bc d188 20bb bbec efbb
000003e0: bb58 49bd 6c2e 18bb
-0.030405587 0.010538301 0.023415804 -0.018139428 0.016429828 0.021977477 -0.0109219635 0.013961073
0.06918202 0.0032770275 -0.011983623 0.004948208 -0.011339508 -0.015999729 -0.04896904 -0.024645159
0.05148401 0.060210746 -0.019856535 0.054900162 0.0025177163 -0.06588927 0.072833 -0.07483574
0.028841078 -0.0020207318 0.046115354 0.005912341 0.071098074 0.0011208158 -0.00053507276 -0.022182407
-0.071388364 -0.017547633 -0.03479054 0.011641277 0.037273128 0.04327941 0.011777515 -0.042233728
-0.03385214 0.016251232 -0.032339994 -0.026772907 -0.050146103 -0.04299208 0.012831298 -0.016091937
0.048822634 -0.02601107 -0.0026780346 -0.008427165 -0.00046201874 -0.04033459 0.015083517 0.04071688
-0.03684306 -0.029697634 -0.003014175 0.020867942 0.037180413 0.012576002 -0.007871879 -0.024878096
0.016175203 -0.0046008597 -0.014100787 0.03337044 0.036016136 -0.03536713 0.011923059 -0.017837353
-0.026676131 0.0033697172 0.0555592 -0.00029869043 -0.04450911 -0.025810787 -0.025822638 -0.004023571
0.041492816 -0.006330693 0.011957147 0.022117844 -0.026873529 -0.0048128045 0.013108365 0.02609616
-0.010176658 -0.013631378 -0.028350879 -0.019872554 -0.01582329 -0.01571411 -0.019546578 0.057809148
-0.009458807 -0.0014369462 0.022929339 -0.061976224 -0.03272565 -0.016270073 0.028192652 0.016409814
-0.03273596 -0.028416565 -0.013375104 0.026469942 -0.014047199 0.0031120963 -0.010042883 -0.029733231
0.05284625 -0.014990543 0.0033143559 -0.015889047 0.0052764467 0.031235391 -0.032283466 0.029246127
0.012785153 0.14647174 -0.01995241 0.0171535 0.012487371 0.005978213 0.0076683597 0.036954727
-0.020124637 -0.03194151 -0.011500455 -0.0126815485 -0.04159279 0.010134535 -0.039195824 0.04394791
-0.05142127 -0.035386123 -0.013984867 -0.041300394 0.002877502 0.05384418 0.00891821 0.0024276976
-0.005901539 -0.054733824 -0.058984537 -0.040315222 -0.016776385 -0.0080009075 -0.000752518 0.036292054
-0.03167642 0.014808444 0.0075177024 -0.011136809 0.042652145 -0.032929253 -0.033376977 0.05984551
-0.01186463 -0.04632254 0.0036258239 -0.02004522 -0.048833054 -0.012694643 0.10553466 -0.02431329
0.075035684 -0.008655395 0.015129654 -0.010541531 -0.03671998 0.035559874 0.021199916 0.020799331
-0.017337922 0.06525525 0.013584979 -0.0422816 -0.055932492 0.05170717 -0.064353526 0.0054486617
-0.021882638 0.022731509 0.03669135 -0.023649488 -3.8526032e-05 0.010305787 0.01200934 -0.024618931
-0.008415365 -0.03129409 -0.064332016 -0.021231556 0.03776316 -0.079110704 -0.0033456772 0.013532289
0.06579433 0.05628729 0.040473815 0.04584668 -0.060893647 -0.040362366 -5.6579967e-05 0.0010135391
0.06771002 -0.01586962 0.018016241 -0.013100213 0.02930799 -0.010019725 -0.05361667 0.04532824
0.030609315 0.008912283 0.023715733 0.030862981 0.059294574 -0.0006921546 -0.030643046 0.0191016
0.01761567 0.10345216 0.014218125 0.037691727 -0.04225197 -0.003920182 0.00045121994 -0.04052295
-0.02916401 0.027793074 -0.034332912 -0.06041009 0.012348055 -0.004351622 0.012013662 0.05188266
-0.046502143 -0.010373424 -0.0021696838 -0.0064615416 -0.009925909 -0.025929967 -0.0024495611 -0.0073219216
-0.049156886 -0.002322103
