speech_id_checkpoint/loss_modelTResNet34_proj512_vlad8_ghost2_spk160_utt1_dropout0.0_featspec_lr0.001_optimAdam_losssi_wd0.0001_fr250.pth (torch, 514023 bytes, 2 tensors)

linear.weight f4 [250, 512]
00000000: 9f4c 603d cc4a 793c f8c6 533c 9add 5dbd
00000010: 5a05 afbc f5a6 39bd 4036 833d cb32 313d
00000020: d19b 323d faf1 a1bd 7772 1fbe 0fbf f33d
00000030: 4a99 8fbd 5bac ab3d 37f0 fcbc 2cfa 09bd
00000040: 42a0 a13b d526 44bc 1e93 f03c 4b9c e03d
00000050: 5fa0 63bd 2526 173d b54d 5cba ebc6 8d3d
00000060: 1949 c83d 722c 81bd 96d5 873c 9f3a 1dbe
00000070: 7b6d 3dbe e330 8bbd 319e 743d 72fe babd
00000080: ea53 32bd 8ecb 08be ce7e 463d 3fb7 ff3d
00000090: 26cb d13c 2bfb f53d 0317 713d 0448 52be
000000a0: 547d 51bd 501f 23be bd0c e3bd a9f9 143e
000000b0: 95e8 9ebd 8b04 09be dbd6 93bc 626f 583c
000000c0: 5aab 563d e12e 273c 4149 863d 768f f03c
000000d0: 6222 13be 43eb f1bd 50c9 2c3e 2279 01bd
000000e0: 2a9e 5bbc d4ff f4bc a92b 86bc 0791 873d
000000f0: cd35 183d 77cd 56be 49b8 7c3d 8f5c 413c
00000100: 82b1 47bd a22f 903b b6f3 11bc 877c be3b
00000110: 29d7 9c3d 84cd 1ebd 4eb2 de3c b202 96bd
00000120: e346 013d 655e 0abd 2775 b6bd 6667 63bd
00000130: 9aed 04bd f466 62bc 0c5d 57bd 1764 f93d
00000140: a2a0 473d 110d b73d c55b 2fbe c3d1 05be
00000150: 3462 fe3d a433 b9bd 7479 2b3c eb7b 843d
00000160: 3a6d 80bd a814 bb3b d069 adbd abaf 18be
00000170: d2a7 133d 491e a93d cd06 3cbd 5183 e03c
00000180: e11b 513c 1dd0 d73d 84ec 313c 8dd2 7e3e
00000190: d838 bd3c 0f5e 30bd 285c 31bd a582 213e
000001a0: ab3a 163d 818b 56bd af6c af38 c363 143d
000001b0: c49b 83bb f48e 00be 7c63 18be 1875 1abd
000001c0: d888 973d fd8f 7fbc ffb6 75be 2310 a53c
000001d0: 73ff b33d 5e69 0abe 0a66 733d 2c45 d93d
000001e0: 61e9 443e 5f30 47bb d180 68ba febf 6ebd
000001f0: 5101 09bc 3f88 e7bc 7dcd 99bd 3c46 9b3d
00000200: f120 4fbc 696f c53d cd14 9f3c 4d0c 953d
00000210: 96b0 2a3d b292 65bd 790a 8f3d e9a1 cdbc
00000220: b44c 23bc cd53 be39 ba74 a73d d411 3d3c
00000230: c58f 073e de1f edba b732 803c 9eba 62bd
00000240: 6838 ac3d 2aeb 9bbd b317 adbc 0b0a c53c
00000250: 5cc2 a6bd 1689 8bbd 5619 183d 4ff7 0cbc
00000260: 69e6 eb3d d0e8 08be 503a 9ebd f0d2 ccbd
00000270: c731 c8ba 404f f63d 6f0f bbbd a50a ddbd
00000280: df43 9ebd 882d c83d 1f70 1bbe 6442 253d
00000290: e7fc babd f6bf 0cbe 6a11 f3bc a84d af3d
000002a0: c448 28bd 1239 3d3c 5621 b5bc 41c6 72bb
000002b0: 3347 8c3d 2ba5 2a3d cf1f a13c 088d ed3d
000002c0: fb6c 83bc 69d1 463d e682 5a3d f411 8fbb
000002d0: 99e5 e73d 1d48 463d 17ba aa3d c7c3 123e
000002e0: a867 803b 8814 fd3d 36d1 06be 33f4 053c
000002f0: b2a1 09bc 80ce a6bd 4db7 26be bc3b 573c
00000300: 46a4 b9bd cc38 38bd 5e26 f8bd a333 2b3d
00000310: 7076 cbbd f205 123e abf0 72bb ae6c a73c
00000320: 6389 883d 44ba 33bd 8e16 acbd 846d ac3b
00000330: 6cd4 7a3c eb45 5abc bc65 9f3d cbfe 2ebc
00000340: dfdc ec3c dd04 d93d a12d 873c 4209 083d
00000350: 4a4c 77bd 9eac ac3c 626a bd3d 70c1 05bd
00000360: 9058 b5bd 235d b7bc 8baf 933c 6789 48bd
00000370: ecea 94bd 127f d53d ed10 67bc 5444 c93d
00000380: 0c9c 8a3c e8df 21bb a210 a83c 07c7 473d
00000390: 31ec 6a3d 71a6 68bd 03ea 0abd b31f 553c
000003a0: b251 053e 417c 43be 4a38 c23d db09 003e
000003b0: 0445 9ebb b491 843d 7891 db3d be79 edbd
000003c0: 381a 51bb be65 f33d 498e a53d f060 96bd
000003d0: 1293 f3bc 5add 54bb ab4b 3e3d ee58 973c
000003e0: 667d 153e e589 c93d 8990 093e 74b1 61bd
000003f0: 858e c8bc 9338 d23c b103 58bd 5735 043e
0.05476057 0.015215587 0.012925856 -0.054166414 -0.021364857 -0.04532524 0.06406832 0.04326133
0.04360563 -0.079074815 -0.15571009 0.11901676 -0.070116594 0.083824836 -0.030876262 -0.033685848
0.0049324343 -0.011972149 0.029367026 0.109673105 -0.055572864 0.03690161 -0.0008403913 0.06922706
0.09779567 -0.063073054 0.016581338 -0.15354393 -0.18498795 -0.06796434 0.059721176 -0.09130563
-0.043537058 -0.133589 0.048460774 0.12486123 0.025609564 0.12010797 0.058859836 -0.20535284
-0.051144913 -0.15929914 -0.11086414 0.14548363 -0.07759205 -0.1338064 -0.018046787 0.0132101495
0.052409507 0.010204048 0.06556941 0.029365283 -0.14368585 -0.11812451 0.1687367 -0.031609662
-0.0134044085 -0.029907145 -0.01637824 0.06619459 0.037160683 -0.20976816 0.061699186 0.011801853
-0.04875327 0.0044002095 -0.008908203 0.0058131847 0.07658226 -0.038770214 0.027184632 -0.07324733
0.031561743 -0.033781428 -0.08909064 -0.05551853 -0.032453157 -0.013818491 -0.05257897 0.12177294
0.048737176 0.08938039 -0.17124851 -0.13068299 0.124210745 -0.09043053 0.010465968 0.06468948
-0.06270833 0.0057092495 -0.08467448 -0.14910762 0.036048718 0.082577296 -0.045904923 0.027406367
0.0127629945 0.10537741 0.010859612 0.24885006 0.023098394 -0.04305845 -0.043300778 0.15772493
0.036677044 -0.052379135 8.364894e-05 0.036227953 -0.0040163714 -0.12554532 -0.148817 -0.037709326
0.07399148 -0.015598294 -0.23995589 0.020149296 0.087889574 -0.13516757 0.059423484 0.106088966
0.19229652 -0.0030393822 -0.0008869293 -0.058288567 -0.00836213 -0.02826321 -0.07509897 0.075817555
-0.012642131 0.096403904 0.019419098 0.07277737 0.04167231 -0.056048103 0.069844194 -0.025101619
-0.009967018 0.0003630206 0.08176561 0.011539895 0.13238437 -0.0018091162 0.015649183 -0.055353753
0.08409196 -0.07613213 -0.021129465 0.02405264 -0.0814254 -0.068132564 0.037133537 -0.008603885
0.115185566 -0.13370061 -0.07725966 -0.10001171 -0.0015273624 0.120268345 -0.09133803 -0.10793046
-0.07727789 0.097743094 -0.1517949 0.04034652 -0.091302685 -0.13745102 -0.02967139 0.08559734
-0.04108502 0.011549251 -0.022110622 -0.0037044438 0.06849518 0.041661423 0.019668488 0.11599165
-0.016043177 0.048539553 0.05334749 -0.004366154 0.11323089 0.048408616 0.08336275 0.14332496
0.003918607 0.12357432 -0.13165745 0.008175897 -0.008400368 -0.081448555 -0.16280861 0.0131368
-0.09064536 -0.04497604 -0.12116693 0.04179729 -0.099346995 0.1426008 -0.0037069719 0.020437565
0.066668294 -0.04387881 -0.084027395 0.0052620787 0.015309434 -0.013322334 0.07783076 -0.010680865
0.028913913 0.10596631 0.01650125 0.033211954 -0.06037549 0.021078404 0.092488065 -0.03265518
-0.088547826 -0.022383278 0.018028041 -0.048959162 -0.0727137 0.10424627 -0.0141031565 0.09827486
0.016920112 -0.002470011 0.020515744 0.04877379 0.057354156 -0.056799356 -0.033914577 0.013008046
0.13019446 -0.19090368 0.094833925 0.1250376 -0.0048300046 0.06473103 0.10721105 -0.11595486
-0.0031906497 0.1188464 0.08083779 -0.07342708 -0.029733215 -0.0032480569 0.04645888 0.018475022
0.14598617 0.098407544 0.13434042 -0.055100873 -0.024482021 0.025661742 -0.052737895 0.12910973

linear.bias f4 [250]
00000000: 375d 1dbd 516c 073d 22b4 a03c 863c e4bc
00000010: be2e 0c3c b2e4 123d fb6e 0dbd fe4e a63c
00000020: 5bb5 833d 7d0c 153b 85c5 14bb 2990 2e3b
00000030: 893c d33a 7a95 6fbc c126 4cbd 46cd c9bc
00000040: 0daa 673d 0438 6d3d cd7a fcbc cf5b 4c3d
00000050: c147 e83b c386 99bd ae5f ac3d 9a63 a2bd
00000060: d86f 9a3c 7b32 1ebb f438 173d 4ef7 503b
00000070: 6c44 c53d e881 813b 5d9a 03bc db37 02bd
00000080: ab7c 99bd e6a9 44bb a8c7 29bd d1b4 20bb
00000090: a9eb ee3c 0d2d 463d 8a41 81bb 09b1 4abd
000000a0: b068 63bd 27d5 3a3c cde4 d8bc adc4 0bbd
000000b0: c2d4 85bd cb12 4abd 9afc a73c 8292 00bb
000000c0: 0c35 093d c9f9 c2bc b9d6 103c 9807 83bc
000000d0: 81cf 5f3c 81fa 31bd 692c 4d3c 42c0 dc3c
000000e0: 164d 20bd 4a6e 38bd 8726 b4bb 9d53 643c
000000f0: bfc1 1a3d e6ef d33b ed26 b0bb 4993 e4bc
00000100: 67a3 693c 2ac9 d63b d17c a5bc 5b00 0d3d
00000110: 31f7 d83c 9a8d 37bd c8b0 2c3c d3a1 f0bb
00000120: 407a 65bc 8d27 333c bb83 6c3d 7d0d 8539
00000130: 8d90 3bbd 59d5 debc cc9c 2bbd 6884 61bc
00000140: 5d53 143d 47ad acbc fa04 1c3c e23b b63c
00000150: 88c7 2fbd 96b3 b6bb eaf1 1ebb dcb5 bb3c
00000160: 56a8 aabc 4945 b2bc c650 aebc 46fe debc
00000170: b4ce e6bc be13 a5bc 9dd5 d1bc 79a8 7e3d
00000180: bb22 cabc 97b5 d43b 90f8 8a3c a9c2 35bd
00000190: 0fac 01bd 3eeb a0bc c8d9 2d3d 6a83 863c
000001a0: 1034 fbbc 1fdc d2bc 8c35 03bd 2406 e33c
000001b0: af0d 86bc e94a 8dba 5716 3abb 1aec 9cbc
000001c0: 86d4 4c3d d8fa a9bc 89bb 5b3b 2974 e8bb
000001d0: f02d b33b 5cf7 1f3d cfaf cdbc 7366 a03c
000001e0: ba17 493c 3a9d 193e fc24 b5bc eaf7 913c
000001f0: 2cbb 333c 2e0b f5bb 917a f8bb a483 463d
00000200: 28e4 e9bc 92ee 29bd 95b5 a7bc 0af7 7dbc
00000210: 14bc 46bd e56f a33c 5597 b7bb 8d9b f83c
00000220: 6a16 93bd b5ca 2bbd c530 19bb 2dfc 11bd
00000230: 9c1b a43b d75d 703d bb90 c43a ed63 0c3a
00000240: bab9 76bc de69 28bd 1ecd 4dbd 7ea1 31bd
00000250: 6fa2 76bc 186b 853b 971f 44bc 302a 0e3d
00000260: ae99 0bbd d86f fb3c ea85 a73b 3a26 97bc
00000270: 5d6b 4d3d a3b1 e1bc d44d cebc b2f2 593d
00000280: 8728 92bc 12e4 3fbd 56f4 973b 866c 09bd
00000290: c4da 33bd 6143 bf3b 8bc2 d33d 3e64 bcbc
000002a0: e027 873d 7d23 73bb 46d4 9f3b 869e 133a
000002b0: accb 7fbc d3b4 053d c837 caba df13 903c
000002c0: d5bc 21bc 03e4 873d 0ac0 123c 0c32 44bd
000002d0: 0c55 60bd 5031 193d 7975 6ebd e405 343b
000002e0: 5591 dbbc 5cb0 c43c 3c3b 113d 87f3 eaba
000002f0: 063f af3c 2b57 c83a 4259 a93b a27a 95bc
00000300: b414 fabc c3a5 1dbd 172a 7ebd 579d c8bc
00000310: 0325 343d dbaa a3bd cb41 36bc 34d5 1d3c
00000320: c962 a03d 87cb 603d 2d91 0c3d 8c03 2c3d
00000330: 0bc9 97bd a91f 3cbd 807a 6abc 42b3 24bc
00000340: 00fc 7b3d df81 2cbc 2359 3f3b 1452 d5bc
00000350: 7562 273d a2cb 22bc 1d67 53bd 9bbe 8e3d
00000360: c5bb 053d be97 ff3b 6971 a23c d165 523c
00000370: ad18 5d3d 3670 83bb fa75 0dbd f99c 9e3c
00000380: 22de a53c 886f e03d 2ae4 af3c 951c 043d
00000390: 7413 22bd 4f11 073d 3584 5dbc 07c0 5bbd
000003a0: 70d6 ccbc be16 333d 0913 29bd 7198 6cbd
000003b0: 1daa 4f3c e628 ccbb 4ca3 cc3a 34eb 5f3d
000003c0: dddc 6dbd afd5 47bc 8704 51bc db45 d6ba
000003d0: dfd1 f2bc 09a5 12bd 3d9b 37bc c1f6 633b
000003e0: 6874 56bd 5c6a 80bb
-0.038418975 0.033062283 0.019617144 -0.027860891 0.008556066 0.035862632 -0.034529667 0.020301338
0.06431075 0.002274304 -0.0022700739 0.002663622 0.0016116063 -0.01462304 -0.049841646 -0.024634015
0.056558657 0.05791475 -0.030820275 0.049892243 0.007088632 -0.07496407 0.08416687 -0.07929154
0.01885216 -0.0024138975 0.03691955 0.0031885686 0.09632191 0.0039522536 -0.008032409 -0.03179155
-0.07494482 -0.0030008494 -0.041450173 -0.0024521837 0.029165106 0.048382808 -0.0039445804 -0.04948524
-0.05551976 0.011403359 -0.026476288 -0.03412311 -0.06534721 -0.04933433 0.020506192 -0.0019618575
0.033497855 -0.023800747 0.008840256 -0.015994832 0.013660313 -0.04345179 0.012522795 0.026947144
-0.039136015 -0.045027055 -0.005497757 0.013935951 0.037782427 0.006467807 -0.005375734 -0.027902262
0.01426015 0.0065547423 -0.020201119 0.034424167 0.026485058 -0.044812776 0.010540195 -0.0073435097
-0.014006197 0.010934723 0.057742815 0.00025377786 -0.04579215 -0.027201341 -0.04189758 -0.013764478
0.036212314 -0.021078719 0.009522671 0.022245351 -0.042914897 -0.0055756075 -0.0024253079 0.022913866
-0.020832222 -0.021761553 -0.02127875 -0.027220856 -0.028174736 -0.020151015 -0.025614554 0.062172387
-0.024674764 0.0064913738 0.016964227 -0.044375096 -0.03165823 -0.019643422 0.04244402 0.016420085
-0.030664474 -0.025739728 -0.03203349 0.027712889 -0.016363947 -0.0010779771 -0.0028394663 -0.01915555
0.050007366 -0.020749494 0.0033528528 -0.0070939255 0.0054681227 0.03905426 -0.025108246 0.019580102
0.012273723 0.15001383 -0.022112362 0.01781841 0.010969918 -0.0074781394 -0.0075829704 0.048465386
-0.028551176 -0.041487284 -0.020472327 -0.015500793 -0.04851921 0.019950816 -0.005602757 0.03034761
-0.071820095 -0.041941363 -0.0023375016 -0.035640884 0.005008174 0.058683243 0.0014996746 0.0005355466
-0.015058929 -0.041116588 -0.050244443 -0.0433669 -0.015053376 0.0040716045 -0.011970422 0.034708202
-0.034082107 0.03069298 0.0051123993 -0.018450845 0.050151218 -0.027550524 -0.025183596 0.053209968
-0.01784159 -0.046848364 0.0046372814 -0.03355076 -0.043909803 0.0058368896 0.103398405 -0.022997018
0.065994024 -0.003710001 0.0048776 0.0005631227 -0.015612524 0.03264315 -0.0015428001 0.0175876
-0.009871681 0.06635287 0.0089569185 -0.04789929 -0.054768607 0.037400544 -0.0582175 0.0027469331
-0.026802698 0.024009876 0.03545688 -0.001792536 0.021392357 0.0015284767 0.005168111 -0.018246952
-0.03052745 -0.03848816 -0.06205186 -0.024489088 0.04398061 -0.079915725 -0.011124085 0.009633351
0.07831342 0.0548816 0.034318138 0.04199557 -0.07411393 -0.04592863 -0.014311433 -0.010052504
0.061519623 -0.010529011 0.0029197417 -0.026040114 0.04086538 -0.009936245 -0.05161201 0.06969949
0.032649774 0.0078000715 0.019829469 0.012841658 0.05397861 -0.0040111793 -0.03453634 0.01936196
0.020247523 0.10958773 0.021471102 0.03225382 -0.039569333 0.03297549 -0.01352029 -0.05364993
-0.025004596 0.04372286 -0.04127792 -0.057762567 0.0126748355 -0.0062304614 0.0015612631 0.054667667
-0.05807196 -0.012196942 -0.012757427 -0.0016347723 -0.02964109 -0.03580192 -0.011206445 0.0034784528
-0.052357107 -0.003918929
